KI/meinNetz.pt (torch, 3095 bytes, 4 tensors)

weight f4 [10, 10]
0	0x3f00820f	0.50198454
1	0x3e83fdc9	0.2577956
2	0xbdf50c46	-0.119652316
3	0x3e3cd936	0.18442234
4	0x3ed3ba14	0.41352904
5	0xbdd38cd0	-0.10329592
6	0xbe5ff4b0	-0.21870685
7	0x3e7f1b66	0.24912795
8	0x3c9273c2	0.017877463
9	0x3eeb3367	0.45937654
10	0xbca69e0d	-0.020339036
11	0xbe87a8d4	-0.26495993
12	0x3d86ddbc	0.06585261
13	0x3e1fc3f8	0.156021
14	0x3e82f381	0.25576404
15	0xbe74e0ce	-0.23913881
16	0xbcdfdd80	-0.0273273
17	0x3dd31620	0.103069544
18	0x3e0ea3e9	0.13929714
19	0x3d5b26cb	0.053503793
20	0xbeba2b78	-0.3636129
21	0xbe545fbc	-0.20739645
22	0xbe1ed48c	-0.15510768
23	0xbe2dd24c	-0.16974753
24	0x3e7a29fd	0.2443008
25	0x3e3da652	0.18520477
26	0x3e90490f	0.2818074
27	0xbdef27fc	-0.11677548
28	0x3d73ce52	0.059522934
29	0x3e77b03d	0.24188323
30	0x3d825a2a	0.06364854
31	0xbe4dedcc	-0.20110244
32	0xbe72726b	-0.2367646
33	0xbdd04974	-0.1017026
34	0x3d4fdd64	0.050748244
35	0x3e666322	0.22498754
36	0xbe88d40a	-0.26724273
37	0xbd8a5798	-0.067549884
38	0xbe120b8c	-0.14262217
39	0x3e22c1de	0.15894267
40	0x3ed10653	0.40825137
41	0xbe831914	-0.2560507
42	0xbe58becc	-0.21166533
43	0xbe1a72d4	-0.15082866
44	0x3ea17090	0.3153119
45	0xbd109048	-0.035293847
46	0xbe874950	-0.2642312
47	0xbe2cbf35	-0.16869815
48	0x3e6b107d	0.22955509
49	0x3dd1538b	0.10221013
50	0xbd27e0a8	-0.040985733
51	0xbe5a7595	-0.21333916
52	0xbe8e3247	-0.27772734
53	0x3e3fb232	0.1872032
54	0xbe2d841e	-0.1694493
55	0x3d432060	0.047638297
56	0x3d437e40	0.047727823
57	0x3e4c76ba	0.19967166
58	0xbe28af5d	-0.16473146
59	0x3e3f4942	0.1868029
60	0x3de6c0ac	0.11267218
61	0xbe7d2d7d	-0.24724384
62	0xbe7da3ff	-0.24769591
63	0xbd426168	-0.047456175
64	0xbe0fa2bf	-0.14026926
65	0x3e96e2fd	0.29470053
66	0x3e8f6b4d	0.28011551
67	0x3e0afd80	0.13573265
68	0xbe2edaf6	-0.17075714
69	0x3e856f5b	0.2606152
70	0x3e5cde20	0.21569109
71	0xbe15d8f5	-0.14633544
72	0x3e096170	0.13416076
73	0xbe4e2b1e	-0.20133635
74	0xbd2b581c	-0.041832075
75	0xbe9cf333	-0.30654296
76	0x3d6c7268	0.057726294
77	0x3e94564b	0.28972086
78	0xbdeebb7f	-0.11656856
79	0xbc7b80b2	-0.015350508
80	0xbe41231a	-0.18861046
81	0xbe485b16	-0.19565997
82	0x3e2d869a	0.16945878
83	0xbe8d13ca	-0.2755416
84	0xbe5dd0c0	-0.21661663
85	0xbe0b5565	-0.13606794
86	0xbd98de36	-0.074642584
87	0xbb227b80	-0.002479285
88	0xbe6c65a5	-0.2308565
89	0x3de12eec	0.10995278
90	0x3e1b14f1	0.15144707
91	0x3e45ffca	0.19335857
92	0xbbdb8b40	-0.0066999495
93	0x3dd2d5b4	0.10294667
94	0x3bbafc70	0.0057063624
95	0xbcb1c170	-0.021698684
96	0xbe6a44aa	-0.22877756
97	0xbe7aa6aa	-0.2447764
98	0x3e63d11d	0.22247739
99	0x3ea60812	0.32428032

bias f4 [10]
0	0xbbefd65f	-0.007319256
1	0x3e907c54	0.28219855
2	0xbe60b3e3	-0.21943621
3	0xbd23f295	-0.040026266
4	0xbcda99f9	-0.026684748
5	0xbda25208	-0.079258025
6	0xbd87f47c	-0.066384286
7	0xbd9434cb	-0.07236632
8	0x3c63b180	0.0138973
9	0x3d86f03c	0.0658879

weight f4 [10, 10]
0	0xbddd9daf	-0.108210914
1	0xbe807adb	-0.2509373
2	0xbb106ba6	-0.002203682
3	0x3da24da8	0.07924968
4	0x3e86d521	0.2633448
5	0xbe97367e	-0.29533762
6	0xbd936b3c	-0.07198188
7	0x3bb3faaf	0.0054925303
8	0x3e4dbeae	0.2009227
9	0xbe0d5158	-0.13800561
10	0x3de75214	0.11294952
11	0xbc8c86d1	-0.01715413
12	0x3e43be2a	0.1911551
13	0xbe5bbb5f	-0.21458195
14	0x3f070f9f	0.5275821
15	0xbddfe6b6	-0.109326765
16	0xbd4e3aa0	-0.050348878
17	0x3c72ba38	0.014814906
18	0xbe813fad	-0.25243893
19	0x3bea6009	0.0071525616
20	0x3e977200	0.29579163
21	0x3e9ad24c	0.3023857
22	0xbe8b5c23	-0.27218732
23	0x3e1b8bc8	0.15190041
24	0x3d8a25b2	0.06745471
25	0x3e291800	0.16513062
26	0xbd8b9c20	-0.06816888
27	0xbe201c25	-0.15635736
28	0xbe7eeb1a	-0.24894372
29	0x3d2701c7	0.04077318
30	0x3eefa81a	0.4680794
31	0xbbc19993	-0.0059082
32	0xbdccd222	-0.10001017
33	0xbdc0dfa1	-0.09417654
34	0x3da257b7	0.079268865
35	0x3dd3ab7c	0.103354424
36	0x3e82465b	0.25444302
37	0xbdded832	-0.1088108
38	0x3d81bd8c	0.06334981
39	0x3d7fd40f	0.062458094
40	0xbdd77284	-0.10519889
41	0x3dc6c047	0.09704643
42	0x3e3e745f	0.1859908
43	0xbe851245	-0.259905
44	0x3dde41e1	0.10852409
45	0xbe2dc768	-0.16970599
46	0x3e0ecce6	0.1394535
47	0x3d741298	0.059588045
48	0xbd426460	-0.047459006
49	0xbe7da5ad	-0.24770232
50	0x3e9041a2	0.28175074
51	0x3ec1b63d	0.3783435
52	0xbe7fe3a1	-0.24989177
53	0x3e22c5b8	0.15895736
54	0xbd9ce962	-0.07661702
55	0x3e9cdf21	0.30638984
56	0x3e11b8e6	0.1423069
57	0xbe3e2372	-0.18568209
58	0x3dabd518	0.08390254
59	0x3eec697d	0.4617423
60	0x3ee9f791	0.4569669
61	0x3d803bca	0.06261404
62	0xbe9c6688	-0.30546975
63	0x3d682451	0.05667526
64	0xbc9e1063	-0.019294923
65	0xbe89560a	-0.26823455
66	0x3d1268f0	0.035744607
67	0xbd1ea402	-0.03873063
68	0x3e697332	0.2279785
69	0x3c39267b	0.011300678
70	0xbd1965c9	-0.037450586
71	0x3e524383	0.20533566
72	0x3ca45d92	0.020064149
73	0x3c526bdf	0.012843101
74	0x3e9b7f07	0.30370352
75	0xbdad7024	-0.08468655
76	0x3e7897a2	0.24276593
77	0xbc8cc3b5	-0.017183164
78	0x3e12651a	0.1429638
79	0x3e921c71	0.28537324
80	0x3eada531	0.33915094
81	0xbe754f74	-0.2395609
82	0x3e08b14b	0.13348882
83	0x3e7a337b	0.244337
84	0xbdf8dfa9	-0.12152035
85	0x3db2415c	0.087038726
86	0x3e157d34	0.14598542
87	0xbe924fff	-0.28576657
88	0xbcd53c50	-0.026029736
89	0xbdcf22e9	-0.101140805
90	0x3ea9c211	0.33155873
91	0x3dd69a7b	0.104786836
92	0xbe970d62	-0.29502398
93	0x3df047f6	0.117324755
94	0xbe674612	-0.22585323
95	0xbd8dea06	-0.06929402
96	0x3e9eb3fb	0.3099669
97	0x3e14486e	0.14480755
98	0x3e8a8c1d	0.27060023
99	0xbe166454	-0.1468671

bias f4 [10]
0	0x3e201b3f	0.15635394
1	0x3ea76781	0.32696155
2	0x3e858ab6	0.2608239
3	0x3e703ff7	0.234619
4	0x3e37baa2	0.17942289
5	0x3d4c06d9	0.049811218
6	0x3ea826ec	0.32842195
7	0x3ebedac5	0.37276283
8	0xbdf3aefa	-0.118986085
9	0xbe4bd67c	-0.19906038
