KI/MNIST.pt (torch, 104575 bytes, 8 tensors)

weight f4 [10, 1, 5, 5]
-0.28636345 -0.22008835 0.48774335 -0.15562241 1.0627595 -0.570629 -0.6828508 -1.3582947
-1.3732595 -0.4740704 -0.12513414 0.012089135 0.12584394 0.23316538 -0.4712303 0.3973666
0.0616503 1.0022714 0.40079543 -0.4036721 0.59246194 -0.54901725 -0.12681979 0.1840528
0.5626502 0.12753911 -0.06716536 -0.26581246 -0.81345636 -0.7762759 0.1275737 -0.13770999
0.17660996 -0.3589943 0.11804148 0.6094501 0.39405832 1.2419446 0.26328656 -0.5410647
0.06485768 -0.27728525 0.10727097 0.41631094 -0.3272212 -0.85115284 -1.0842307 -0.30734146
-0.05757861 0.39158097 -0.6147609 0.08064479 -0.16302454 0.59077775 -0.79722893 -0.9462462
-0.5380975 0.41499683 0.39672184 0.23527695 -0.22660261 -0.48213774 -0.08795948 0.4252017
0.4439482 -0.07077991 -0.7868914 -0.097491175 0.25444764 0.6330243 0.18277906 0.029263588
-0.72812665 -1.2921743 -0.6635212 -0.79982334 -0.6980763 0.24592933 -0.071015015 -0.21847862
-0.22018468 -0.6874354 0.12388012 -0.0010598332 -0.41898975 0.34483764 0.427288 0.6107426
0.2676796 -1.1912931 0.37314838 0.3120473 -0.266087 -0.9082327 -0.37921602 -0.9249173
-0.896748 -0.78930885 -0.20931424 -0.20947076 0.11841277 -0.5688753 -0.32011425 0.30008563
-0.18626013 0.063425 -0.048469413 -0.8093636 -0.14870675 0.45476362 0.36265516 -0.35995817
-0.87701064 -0.41951728 0.07477941 0.27549285 -0.18161538 -0.08871272 -0.15112382 0.4894145
-0.25042763 -0.49093333 -0.88591295 -0.41710836 0.84322566 0.5195501 -0.60666406 -0.7079267
-0.29569396 -0.52368027 0.4430858 -0.024566377 -0.66532916 -0.34620237 -0.079383925 0.48282337
-0.5293314 -0.70561105 -0.06764117 -0.2504904 -0.4021808 -0.5522777 -0.6057369 0.10258493
-0.003064418 -0.46062914 0.08071642 -0.7158945 -0.2592354 -0.101473115 -0.90888387 0.32115608
0.022135463 0.30441546 0.23790722 -0.77987313 -1.2979336 -0.95648885 -0.4265289 -0.079707384
0.5060174 -0.5078216 -0.45923233 -0.43209922 -0.44789335 0.30851316 -0.5449981 -0.21323168
-0.4623791 -0.7053263 0.6217992 0.3267675 -0.4319159 -0.23709095 -0.5227311 -0.09093492
0.5002534 0.11169642 -0.18720932 -0.63433015 -0.22730571 0.29983538 0.35692233 0.09213723
-0.7181493 -0.33187395 0.1236163 -0.46931097 -0.57611024 -0.72707385 -0.38978395 -0.1719761
-1.1905667 -0.18334164 -0.53492785 -0.44938928 -0.47197816 -0.37564823 0.39646265 1.2899032
0.17578933 -0.35217986 0.108570404 -0.024592394 0.08784809 -0.044535086 -0.26931733 -0.2758598
-0.19851448 -0.078162 -0.07573157 -0.06606344 -0.38101533 -0.5900096 -0.42963213 -0.21299042
-0.24232297 -0.022879587 0.098761596 0.054084346 0.121784344 -0.00063178746 -0.14063641 -0.10252443
-0.000958078 0.127023 0.23050924 0.475067 0.31661633 0.72977924 -0.11727788 0.4660707
-0.040529404 -0.08752081 -0.25834024 -1.0665807 -0.12737714 -0.029961785 0.8126441 -0.7489331
-0.8879485 -0.8928881 -0.69201434 -1.4313436 -1.1047276 0.37015355 -0.4632414 -0.19913305
-0.17741671 0.71190727
00000000: 3b9e 92be d75e 61be 7fb9 f93e 7b5b 1fbe
00000010: 8108 883f be14 12bf 4fcf 2ebf 9adc adbf
00000020: f8c6 afbf 5bb9 f2be 2a23 00be 8211 463c
00000030: 3cdd 003e e8c2 6e3e 1945 f1be a373 cb3e
00000040: 0685 7c3d 6e4a 803f 0f35 cd3e 1cae cebe
00000050: 96ab 173f 658c 0cbf 0cdd 01be 5678 3c3e
00000060: d809 103f 9d99 023e fe8d 89bd 9218 88be
00000070: ad3e 50bf 04ba 46bf aea2 023e d903 0dbe
00000080: 3ed9 343e 1ace b7be bbbf f13d ec04 1c3f
00000090: 03c2 c93e 0af8 9e3f 7fcd 863e 3783 0abf
000000a0: 1ad4 843d 55f8 8dbe e2b0 db3d b526 d53e
000000b0: 8a89 a7be 27e5 59bf 12c8 8abf dc5b 9dbe
000000c0: 8cd7 6bbd 4d7d c83e f860 1dbf 1829 a53d
000000d0: e8ef 26be 363d 173f 3217 4cbf 313d 72bf
000000e0: c2c0 09bf 777a d43e 201f cb3e 71ec 703e
000000f0: 840a 68be c2da f6be 1a24 b4bd 0ab4 d93e
00000100: 2e4d e33e 0ff5 90bd b771 49bf 74a9 c7bd
00000110: f646 823e e10d 223f 6f2a 3b3e 31ba ef3c
00000120: 8266 3abf f865 a5bf 86dc 29bf 39c1 4cbf
00000130: 21b5 32bf e6d4 7b3e 5270 91bd dcb8 5fbe
00000140: 1878 61be c4fb 2fbf dcb4 fd3d 1aea 8aba
00000150: d385 d6be 8f8e b03e 7ec5 da3e a159 1c3f
00000160: 4d0d 893e 4b7c 98bf 4e0d bf3e aac4 9f3e
00000170: 8e3c 88be f081 68bf 9a28 c2be 61c7 6cbf
00000180: 4791 65bf 2510 4abf 7956 56be 817f 56be
00000190: 6582 f23d d0a1 11bf 04e6 a3be d3a4 993e
000001a0: faba 3ebe f7e4 813d dd87 46bd 7432 4fbf
000001b0: 9546 18be c7d6 e83e f0ad b93e 704c b8be
000001c0: c583 60bf f8ca d6be f325 993d 660d 8d3e
000001d0: 62f9 39be 04af b5bd 34c0 1abe 8a94 fa3e
000001e0: 0d38 80be 9d5b fbbe 31cb 62bf 3a8f d5be
000001f0: a3dd 573f 3c01 053f 564e 1bbf af3a 35bf
00000200: 3365 97be e90f 06bf 24dc e23e 6d3f c9bc
00000210: 0353 2abf 7041 b1be 0a94 a2bd a034 f73e
00000220: 4382 07bf eda2 34bf 7487 8abd 4740 80be
00000230: a4ea cdbe 1262 0dbf 9311 1bbf 0c18 d23d
00000240: 67d4 48bb 95d7 ebbe a74e a53d dd44 37bf
00000250: 81ba 84be 23d1 cfbd 9dac 68bf 926e a43e
00000260: 6e55 b53c 58dc 9b3e f39d 733e c4a5 47bf
00000270: b022 a6bf 74dc 74bf ff61 dabe a03d a3bd
00000280: 5b8a 013f 9900 02bf 8020 ebbe 1c3c ddbe
00000290: 4752 e5be 70f5 9d3e ff84 0bbf 6859 5abe
000002a0: f4bc ecbe 4490 34bf 3b2e 1f3f 124e a73e
000002b0: 1524 ddbe f8c7 72be b5d1 05bf 163c babd
000002c0: 9b10 003f 18c1 e43d cdb3 3fbe 7663 22bf
000002d0: d4c2 68be 0684 993e 86be b63e 72b2 bc3d
000002e0: a2d8 37bf 62eb a9be 8b2a fd3d 8749 f0be
000002f0: f67b 13bf 8321 3abf c391 c7be 811a 30be
00000300: 7d64 98bf e9bd 3bbe 08f1 08bf 5a16 e6be
00000310: 1fa7 f1be f754 c0be 27fd ca3e 8c1b a53f
00000320: 1e02 343e eb50 b4be 295a de3d fd75 c9bc
00000330: b3e9 b33d 6c6a 36bd f6e3 89be 7f3d 8dbe
00000340: 6147 4bbe 6613 a0bd 2719 9bbd 454c 87bd
00000350: 7114 c3be df0a 17bf bef8 dbbe 291a 5abe
00000360: 8323 78be f96d bbbc 8543 ca3d 8c87 5d3d
00000370: 126a f93d 8a9e 25ba fe02 10be 54f8 d1bd
00000380: 8727 7bba 5112 023e 9d0a 6c3e fb3b f33e
00000390: 891b a23e d0d2 3a3f 632f f0bd d2a0 ee3e
000003a0: 2902 26bd 1c3e b3bd 2c45 84be b785 88bf
000003b0: 276f 02be 6b72 f5bc 7209 503f 14ba 3fbf
000003c0: 9850 63bf 5194 64bf da27 31bf 4436 b7bf
000003d0: b767 8dbf c484 bd3e fa2d edbe 89e9 4bbe
000003e0: baac 35be 8e3f 363f

bias f4 [10]
-4.5460186 -3.0493908 -3.149023 -3.1554315 -3.400226 -3.0329692 -2.639308 -2.869455
-1.9661692 -3.5528615
00000000: fc78 91c0 3829 43c0 9889 49c0 97f2 49c0
00000010: 4e9d 59c0 2b1c 42c0 6cea 28c0 27a5 37c0
00000020: 6fab fbbf 1562 63c0

weight f4 [20, 10, 5, 5]
0.09157756 -0.101242766 -0.0037915276 -0.008609593 0.299295 0.0925225 -0.24049897 -0.2956307
0.06655074 0.22254908 -0.16779238 -0.13493471 0.12237808 -0.30751544 0.12789549 0.015339625
0.03752794 0.26052132 0.11375188 -0.27890065 0.22704166 0.12990381 -0.20405312 -0.19697241
-0.3256376 0.21116355 -0.04899901 -0.044776868 0.14912276 0.03798336 -0.034874357 0.068521395
-0.2986053 -0.22091764 0.07598015 0.022182675 -0.2153997 0.10482859 0.5952019 0.10093515
-0.33451122 -0.069338106 -0.3976206 -0.10338822 0.06466279 0.25967366 -0.06062008 0.046802368
-0.27622557 -0.2596624 -0.17512292 -0.4158154 -0.3877702 -0.34193355 -0.4483027 0.29643163
0.16012482 0.1242666 0.042442776 -0.13611828 0.2666781 -0.22957201 0.056245312 0.069746405
0.12098669 0.23761113 -0.44451132 -0.23079224 -0.1495653 -0.24328937 -0.40606686 0.014416923
-0.11130676 -0.16841553 -0.48813885 0.045734752 0.020627376 0.12591313 -0.15580986 0.086723946
0.08420975 0.10504848 0.13996565 0.14309594 -0.2711517 -0.13913225 0.0730735 0.29953945
0.03785566 0.08208348 -0.048262876 -0.20273037 -0.12108546 -0.37157646 0.31855088 -0.15780163
-0.22584546 -0.26270694 0.0043205866 0.27903134 -0.05203146 -0.0046057682 -0.022110127 -0.6346969
-0.49622437 -0.11935412 0.16008297 -0.25070015 -0.24665621 -0.5556564 -0.28971797 -0.44214943
-0.63834125 -0.27985197 -0.01783957 -0.4968931 -0.8669144 -0.33874378 -0.16020194 -0.01887442
-0.22699445 -0.22703889 -0.26246253 -0.16346627 -0.42631924 -0.18642808 0.05638225 0.087906964
-0.16729596 -0.021787921 -0.26884112 -0.12205405 -0.007114917 -0.4485227 -0.041734606 -0.20877504
-0.40271464 -0.31931028 -0.14296661 0.29082003 -0.15409777 0.13682294 -0.35766864 -0.254541
-0.32050237 0.10500479 -0.15146694 -0.74320257 -0.6228944 -0.56070065 -0.0554734 -0.15036394
-0.09355207 -0.17136005 -0.4269936 -0.3041728 -0.23825465 -0.10687968 -0.037602983 0.19957563
-0.0881036 -0.114141144 -0.14824341 0.11306402 -0.17946574 0.01132327 0.062151626 -0.066200905
-0.3090352 -0.44046277 0.32168812 0.11901721 0.04482936 -0.64063406 -0.9858292 0.047719818
-0.01768257 -0.09051556 0.058254473 -0.22380263 0.31076035 0.10381514 0.15569933 -0.4775503
-0.15805948 -0.3542914 -0.15075101 -0.10856529 -0.5082838 -0.5095019 0.030500768 0.24067068
0.3636537 -0.19714208 -0.17446074 -0.2191206 0.08183702 -0.15168704 0.062269878 -0.0430609
-0.041109316 -0.08851302 -0.12115663 -0.07512915 0.041509435 -0.13586794 0.033806544 -0.004461621
-0.039661445 0.079354554 -0.15065382 -0.1247009 -0.15368403 -0.20787357 -0.21914925 -0.0069323424
-0.2896443 -0.040699277 0.03298576 -0.03432367 -0.20460607 -0.017557988 -0.026462799 0.11034922
-0.033279095 -0.6513864 -0.35720336 -0.102410525 -0.1505738 -0.14178772 -0.07853709 0.029906098
0.101251245 0.18459116 -0.024959298 0.26336387 -0.19895785 0.1222974 0.12655643 0.016017744
0.38617194 0.41111457 0.25486824 0.017298248 -0.78265953 0.18030073 -0.10182351 -0.21633023
-0.13543642 -0.19265285 -0.035710786 -0.3568022 -0.051562108 -0.1593724 -0.23690173 -0.11050061
00000000: 048d bb3d 5e58 cfbd 477b 78bb 400f 0dbc
00000010: 323d 993e 707c bd3d 5d45 76be e85c 97be
00000020: c14b 883d e8e3 633e c4d1 2bbe 532c 0abe
00000030: 5ca1 fa3d aa72 9dbe 09f7 023e 0d53 7b3c
00000040: e6b6 193d 0d63 853e bff6 e83d 11cc 8ebe
00000050: 9c7d 683e 8105 053e 4df3 50be 23b3 49be
00000060: f9b9 a6be 423b 583e 30b3 48bd f367 37bd
00000070: a3b3 183e 7194 1b3d 6ad8 0ebd f254 8c3d
00000080: cbe2 98be 3c38 62be 7b9b 9b3d 71b8 b53c
00000090: bd91 5cbe 5fb0 d63d 275f 183f 17b7 ce3d
000000a0: 0e45 abbe 2301 8ebd ed94 cbbe 34bd d3bd
000000b0: ed6d 843d f2f3 843e c34c 78bd d7b3 3f3d
000000c0: 706d 8dbe 78f2 84be 6c53 33be c2e5 d4be
000000d0: d189 c6be ea11 afbe ee87 e5be e3c5 973e
000000e0: c3f7 233e 7d7f fe3d 7ad8 2d3d 9762 0bbe
000000f0: 088a 883e ed14 6bbe 7c61 663d 34d7 8e3d
00000100: dfc7 f73d 5550 733e fd96 e3be cd54 6cbe
00000110: a527 19be d920 79be ffe7 cfbe f534 6c3c
00000120: ccf4 e3bd 1f75 2cbe 56ed f9be 5d54 3b3d
00000130: befa a83c 5fef 003e 9f8c 1fbe 539c b13d
00000140: 2976 ac3d a823 d73d 2853 0f3e be87 123e
00000150: 65d4 8abe af78 0ebe 8fa7 953d 3c5d 993e
00000160: 890e 1b3d 621b a83d 4baf 45bd 8d98 4fbe
00000170: a7fb f7bd 453f bebe 1a19 a33e c096 21be
00000180: 0844 67be 8681 86be b593 8d3b 32dd 8e3e
00000190: f11e 55bd fceb 96bb 4c20 b5bc 7f7b 22bf
000001a0: 1f11 febe ef6f f4bd caec 233e c55b 80be
000001b0: 7293 7cbe 7f3f 0ebf ea55 94be 6961 e2be
000001c0: 556a 23bf c248 8fbe 4a24 92bc c668 febe
000001d0: 1aee 5dbf d36f adbe fa0b 24be 879e 9abc
000001e0: 3c71 68be e27c 68be 7d61 86be b463 27be
000001f0: 8446 dabe 01e7 3ebe 13f1 663d 9108 b43d
00000200: a24f 2bbe 957c b2bc 8ba5 89be 79f7 f9bd
00000210: 4024 e9bb c4a4 e5be e8f1 2abd 20c9 55be
00000220: 9d30 cebe a37c a3be d765 12be 5de6 943e
00000230: cecb 1dbe 501b 0c3e 5820 b7be 3353 82be
00000240: e318 a4be c00c d73d 261a 1bbe 8642 3ebf
00000250: 0276 1fbf 148a 0fbf 1338 63bd 01f9 19be
00000260: 3a98 bfbd 0279 2fbe e89e dabe 8abc 9bbe
00000270: 07f9 73be bce3 dabd 9605 1abd 8e5d 4c3e
00000280: a96f b4bd d5c2 e9bd 1fcd 17be 1c8e e73d
00000290: dec5 37be 3d85 393c b492 7e3d 5794 87bd
000002a0: dd39 9ebe 5684 e1be 4eb4 a43e 4cbf f33d
000002b0: fe9e 373d 9800 24bf 4d5f 7cbf db75 433d
000002c0: 09db 90bc 3960 b9bd 3e9c 6e3d 842c 65be
000002d0: fb1b 9f3e 089d d43d a56f 1f3e 7981 f4be
000002e0: 58da 21be af65 b5be 795e 1abe 7b57 debd
000002f0: e31e 02bf b76e 02bf bfdc f93c 6072 763e
00000300: d130 ba3e 9ddf 49be d6a5 32be 2761 60be
00000310: 2b9a a73d d953 1bbe b30e 7f3d a060 30bd
00000320: 3e62 28bd 5046 b5bd f820 f8bd 50dd 99bd
00000330: cc05 2a3d f720 0bbe bb78 0a3d ca32 92bb
00000340: 0a74 22bd a484 a23d ff44 1abe 2f63 ffbd
00000350: 595f 1dbe cfdc 54be a968 60be b428 e3bb
00000360: 424c 94be 49b4 26bd 141c 073d fa96 0cbd
00000370: 4184 51be c5d5 8fbc 83c8 d8bc c6fe e13d
00000380: a94f 08bd 42c1 26bf 5ce3 b6be 9cbc d1bd
00000390: 0530 1abe cd30 11be 0ed8 a0bd a2fd f43c
000003a0: d05c cf3d 7705 3d3e 7177 ccbc a1d7 863e
000003b0: 9bbb 4bbe 0f77 fa3d 0298 013e a537 833c
000003c0: 54b8 c53e 9c7d d23e 177e 823e 0eb5 8d3c
000003d0: 605c 48bf c1a0 383e d888 d0bd ac85 5dbe
000003e0: d8af 0abe ca46 45be 7945 12bd c7ae b6be
000003f0: ca32 53bd 8532 23be 5e96 72be 254e e2bd

bias f4 [20]
-0.22630815 0.17611314 -0.33574626 -0.0051381825 0.13257019 -0.46682975 -0.2292809 -0.17344315
-0.48498365 -0.5635013 0.17557357 -0.6619507 -0.31519523 -0.3046931 -0.068969674 -0.06534673
-0.025712477 -0.0868442 0.14901106 0.062448174
00000000: 53bd 67be 0157 343e efe6 abbe 335e a8bb
00000010: 7bc0 073e 4f04 efbe 9dc8 6abe 159b 31be
00000020: c74f f8be 9f41 10bf 8fc9 333e 9a75 29bf
00000030: 4561 a1be bc00 9cbe f93f 8dbd 82d4 85bd
00000040: f9a2 d2bc 5fdb b1bd 5b96 183e a8c9 7f3d

weight f4 [60, 320]
0.26658362 0.020779552 0.08268945 -0.07443887 0.2588084 -0.05250636 -0.12174368 -0.17299399
0.12541954 -0.28421676 -0.4558187 -0.051736932 -0.36709395 -0.16024366 -0.12698397 0.21475774
-0.14464785 -0.059474997 -0.31752342 -0.2698904 -0.46022162 -0.16982211 0.09447 -0.06764328
0.14801297 0.17736144 0.10615008 0.2066336 0.24118371 0.31167704 -0.36909273 -0.33788034
0.13636087 0.1427729 0.22430988 -0.10685776 -0.15110771 -0.0034210682 0.017354516 -0.24319418
-0.3413755 -0.36221686 -0.2780957 -0.15104719 -0.5074813 0.029516157 0.23726127 0.19667394
0.008845566 -0.18501154 -0.008442751 0.13946651 -0.3624756 -0.51768434 -0.110422485 0.15563264
-0.4771521 -0.099798106 -0.45434484 -0.21142758 0.08822103 0.110743694 -0.16498715 -0.19727643
-0.34716317 -0.2501474 -0.16808043 -0.35304946 -0.18346441 0.3274528 0.08037731 -0.06117738
-0.3357098 -0.050206594 0.034219388 0.29310933 -0.18177636 -0.11578501 0.17292355 -0.019935697
-0.24289098 -0.34591466 -0.11148635 -0.07461962 -0.08193468 0.054937012 0.23374203 0.07223544
-0.111939825 -0.12197401 0.123874746 0.0016852294 -0.09720749 -0.14255737 -0.13137004 -0.20120198
0.00596883 -0.047777563 -0.21354382 -0.18935943 -0.04021898 0.099577054 -0.074710846 0.0069616386
0.27988154 0.09894276 -0.053710233 -0.06423198 0.023907445 0.06310788 -0.08507295 -0.39046365
-0.002257125 -0.051667128 0.1230641 -0.14365433 -0.15334068 0.06999033 0.070830435 0.08681898
0.10232371 0.029128956 -0.0643432 0.07890266 0.0024348188 0.012669148 -0.16085525 -0.80866
-0.115933456 -0.06463596 0.10241283 -0.2718317 -0.36186484 -0.36308777 -0.26485044 -0.3883633
0.093216166 0.02222247 0.014212989 -0.053094212 0.086552955 -0.059731223 0.3062383 0.2852698
0.04982579 -0.19181427 -0.15061025 -0.12804864 0.18525372 0.028654827 -0.06625637 -0.13855468
0.39476115 0.22555128 0.38659364 0.32776555 -0.40390977 -0.07711753 0.217734 -0.15709159
-0.0913756 -0.44310945 -0.22331153 -0.25791147 0.10101414 -0.3194461 -0.15953165 -0.0843446
0.4249487 0.03160911 0.2595411 -0.14399941 -0.53258586 -0.15264496 0.041125864 -0.04868781
0.19546117 0.15344067 -0.12472874 -0.101365104 0.17261468 0.37878013 -0.17851195 -0.14477737
-0.10246069 0.04348792 -0.15699269 0.022922616 -0.36410567 -0.34589258 -0.17448913 0.11093529
-0.17244491 -0.1872625 -0.048642572 -0.1842805 -0.19600153 -0.26026198 -0.042155217 -0.009531695
-0.314541 -0.28165957 -0.1468766 0.16613545 -0.05214154 0.1300447 0.12988591 0.2503785
0.05763961 -0.27122995 -0.40575048 -0.18185362 -0.17691089 -0.3681344 -0.24831524 -0.14708118
-0.5022885 -0.07759754 -0.015247001 -0.013670067 0.33059555 0.43902335 0.12399304 0.03552355
-0.091131054 0.013004065 -0.109343946 -0.27056652 -0.4593904 -0.21338512 -0.017631533 -0.29959327
0.07385211 0.43677345 0.20167713 -0.06580779 -0.05255905 0.1625205 -0.24189503 -0.26561004
0.1732891 -0.006952419 -0.061074503 -0.0024437972 -0.24517661 -0.09826215 -0.07368952 -0.010006412
-0.23168027 -0.06164133 0.06766295 -0.015953641 -0.3279529 -0.13133572 0.11959435 -0.0049866624
00000000: a67d 883e e139 aa3c 1659 a93d 6873 98bd
00000010: 8982 843e e910 57bd c054 f9bd 5625 31be
00000020: fb6d 003e dc84 91be 1261 e9be 1bea 53bd
00000030: bdf3 bbbe ea16 24be 1608 02be 74e9 5b3e
00000040: 911e 14be 0e9c 73bd 6e92 a2be 132f 8abe
00000050: 2ba2 ebbe d9e5 2dbe 7d79 c13d 8f88 8abd
00000060: b690 173e 3d9e 353e 3765 d93d c297 533e
00000070: ddf8 763e 2294 9f3e b9f9 bcbe a7fe acbe
00000080: 2fa2 0b3e 0f33 123e 7db1 653e 3ed8 dabd
00000090: fbbb 1abe 0034 60bb 0f2b 8e3c e507 79be
000000a0: c5c8 aebe 7d74 b9be 8f62 8ebe 1dac 1abe
000000b0: 4bea 01bf decb f13c 9ef4 723e e564 493e
000000c0: feec 103c aa73 3dbe 7753 0abc 4fd0 0e3e
000000d0: 6796 b9be f686 04bf 2f25 e2bd 2a5e 1f3e
000000e0: 484d f4be f362 ccbd e39f e8be 7980 58be
000000f0: 3aad b43d 97cd e23d 64f2 28be d502 4abe
00000100: 5fbf b1be 5213 80be 471d 2cbe e6c2 b4be
00000110: 18de 3bbe e5a7 a73e dc9c a43d 2295 7abd
00000120: 28e2 abbe 6ea5 4dbd a129 0c3d 6d12 963e
00000130: 9523 3abe b120 edbd df12 313e 3050 a3bc
00000140: 6ab8 78be ba1b b1be f552 e4bd 2cd2 98bd
00000150: 5fcd a7bd a205 613d 125a 6f3e 2df0 933d
00000160: b540 e5bd 82cd f9bd 0bb2 fd3d eae2 dc3a
00000170: b814 c7bd 8ffa 11be de85 06be e407 4ebe
00000180: 2d96 c33b 68b2 43bd 3bab 5abe 70e7 41be
00000190: a8bc 24bd 0eef cb3d 0002 99bd 751e e43b
000001a0: a24c 8f3e 80a2 ca3d 43ff 5bbd 0e8c 83bd
000001b0: 8cd9 c33c b43e 813d ba3a aebd daea c7be
000001c0: 46ec 13bb e9a0 53bd 0809 fc3d 1f1a 13be
000001d0: 5705 1dbe 1757 8f3d 8c0f 913d 26ce b13d
000001e0: 188f d13d d99f ee3c 5ec6 83bd b897 a13d
000001f0: 7b91 1f3b 4292 4f3c 3db7 24be 5704 4fbf
00000200: 856e edbd dc5f 84bd d1bd d13d 862d 8bbe
00000210: 5946 b9be a4e6 b9be 7a9a 87be 8ed7 c6be
00000220: 1ee8 be3d e60b b63c 99dd 683c 5179 59bd
00000230: ad42 b13d baa8 74bd 44cb 9c3e e20e 923e
00000240: 2116 4c3d f66a 44be 9339 1abe 2f1f 03be
00000250: 27b3 3d3e 87bd ea3c 6bb1 87bd 47e1 0dbe
00000260: 221e ca3e eaf6 663e 9aef c53e e3d0 a73e
00000270: 43cd cebe ccef 9dbd a9f5 5e3e 9edc 20be
00000280: 2123 bbbd 3edf e2be c7ab 64be f90c 84be
00000290: 80e0 ce3d 708e a3be 445c 23be ddbc acbd
000002a0: e092 d93e 8e78 013d 92e2 843e 9574 13be
000002b0: 8c57 08bf f64e 1cbe 9873 283d de6c 47bd
000002c0: f926 483e 8d1f 1d3e c871 ffbd 8298 cfbd
000002d0: e7c1 303e 78ef c13e d6cb 36be 8540 14be
000002e0: e9d6 d1bd 6420 323d b1c2 20be 36c8 bb3c
000002f0: 0f6c babe d518 b1be 47ad 32be 0b32 e33d
00000300: 6695 30be bec1 3fbe 6f3d 47bd 07b4 3cbe
00000310: a0b4 48be 0f41 85be f3aa 2cbd d42a 1cbc
00000320: 850b a1be af35 90be d266 16be 691f 2a3e
00000330: 5e92 55bd 702a 053e d000 053e 9c31 803e
00000340: 8317 6c3d a7de 8abe 87be cfbe d637 3abe
00000350: 2128 35be 1d7c bcbe 5a46 7ebe 739c 16be
00000360: fb95 00bf 76eb 9ebd 8fce 79bc 6bf8 5fbc
00000370: d243 a93e abc7 e03e 10f0 fd3d 2481 113d
00000380: eba2 babd 000f 553c b8ef dfbd b287 8abe
00000390: 3835 ebbe a181 5abe 0170 90bc 4a64 99be
000003a0: c63f 973d c5a0 df3e 7384 4e3e 3cc6 86bd
000003b0: 2948 57bd c66b 263e 55b3 77be 0afe 87be
000003c0: b372 313e 1ed1 e3bb 4229 7abd 1d28 20bb
000003d0: 940f 7bbe ab3d c9bd 88ea 96bd eff1 23bc
000003e0: 983d 6dbe 9f7b 7cbd df92 8a3d 36b1 82bc
000003f0: 71e9 a7be df7c 06be e2ed f43d 2867 a3bb

bias f4 [60]
0.14138906 -0.049737226 0.8901736 -0.044341568 0.41548628 0.12319884 0.04129348 0.022326918
0.2370614 -0.10082652 -0.111867346 -0.08956722 0.122416444 -0.17323622 0.06550199 0.043678854
0.026936747 0.16556807 -0.0005264807 0.06524687 -0.051921763 0.43686977 0.10727533 0.4144973
0.02414848 0.1838941 -0.026985656 0.017573148 -0.030761966 0.42554057 -0.19470549 0.0691442
-0.13371368 -0.25515035 0.083100356 0.177274 0.16953138 -0.2042416 0.30036458 -0.06732206
-0.11689482 0.5861848 0.031053348 0.016741093 -0.14234923 0.30311513 0.14571138 0.31606477
0.17463522 0.44470766 0.06905297 0.17376983 0.48772004 0.2610376 0.041754726 -0.02776344
0.3010595 0.020654703 0.56990016 -0.16085729
00000000: 4bc8 103e 43b9 4bbd 6be2 633f 819f 35bd
00000010: 9eba d43e ac4f fc3d 5a23 293d f1e6 b63c
00000020: 39c0 723e 227e cebd b51a e5bd 056f b7bd
00000030: 79b5 fa3d d664 31be e825 863d 99e8 323d
00000040: 74aa dc3c ad8a 293e 8603 0aba 27a0 853d
00000050: eaab 54bd 65ad df3e 2bb3 db3d fd38 d43e
00000060: 08d3 c53c bc4e 3c3e 0611 ddbc 90f5 8f3c
00000070: 8500 fcbc 74e0 d93e e060 47be 799b 8d3d
00000080: 3dec 08be 11a3 82be 8530 aa3d 5187 353e
00000090: a299 2d3e b624 51be 63c9 993e 26e0 89bd
000000a0: 8d66 efbd 3510 163f 9763 fe3c 9e24 893c
000000b0: ffc3 11be e831 9b3e 5d35 153e 3ed3 a13e
000000c0: 93d3 323e b9b0 e33e a56b 8d3d b8f0 313e
000000d0: 71b6 f93e b8a6 853e 0107 2b3d 2770 e3bc
000000e0: 7924 9a3e 0d34 a93c fae4 113f c6b7 24be

weight f4 [10, 60]
0.0039017668 -0.28548217 -0.15606457 0.11189485 0.23914605 -0.21008466 0.21440597 0.39415106
-0.04137594 0.19486342 -0.10953874 -0.034894124 -0.06335655 -0.24749938 -0.21608303 0.2817078
0.11141189 -0.20409274 0.020743072 -0.13007441 -0.2610577 -0.13813037 -0.23911856 -0.2662599
-0.1569722 -0.36435908 -0.07907574 0.006934466 0.2603746 0.21975686 -0.17493075 0.06018421
-0.12530053 0.0803903 0.36932427 -0.16939333 -0.23559643 0.036027975 -0.18268411 -0.0036758592
-0.08994357 -0.28344613 -0.08417732 0.09374948 0.029137842 0.42964265 -0.34679985 -0.1694173
0.48329815 0.50441253 -0.14045571 -0.4105798 -0.018790571 0.22491167 -0.28258657 -0.4754888
-0.31303728 0.058695443 -0.25355664 -0.13922708 0.1994822 -0.051021215 0.3619314 -0.028461756
0.28546438 0.12575378 -0.1795911 -0.23166348 -0.19850059 -0.13697618 -0.09539194 0.033474997
-0.40648583 -0.37972182 0.16669874 -0.15569156 -0.14422601 -0.24381495 -0.16419326 0.024574678
0.14642645 0.30963635 -0.08567987 -0.06956841 -0.3817457 0.0041096006 0.020900017 -0.07187174
-0.20084786 0.43847084 0.013680126 -0.081725985 -0.0776308 -0.33322445 -0.27971035 -0.28739825
-0.14049691 -0.055904962 0.076328315 -0.32396302 -0.44733906 0.6097269 -0.15943989 -0.10271314
-0.06255065 -0.17509028 -0.3020851 0.13433555 -0.23227952 -0.260551 -0.08537847 0.10636599
0.35624206 -0.08514603 0.05373229 0.10061366 0.3139066 -0.02376966 0.62928146 0.042882416
0.42579252 0.02666402 -0.07917908 -0.018891964 -0.0069479747 -0.005663461 -0.12691355 -0.4301278
0.2028262 -0.015174297 -0.20722944 0.34011558 0.037149295 -0.4403238 0.26483503 -0.20203766
-0.113155715 0.085354716 0.30561578 0.008123317 -0.22022001 0.42219582 0.09611424 -0.18841028
-0.07325385 0.1027421 -0.25327295 0.17617118 -0.27507558 -0.20040932 -0.26353496 0.13105926
-0.33141094 -0.108674504 -0.067839205 -0.026910616 -0.032498814 -0.22305518 0.15203226 0.40992108
0.052216385 0.112688676 0.34308922 -0.13222475 0.079112284 -0.014079368 -0.06733692 0.36107635
0.03751209 0.036544666 0.10575752 -0.025132556 -0.037128177 0.34450817 -0.01889975 -0.07874613
-0.20407453 -0.16776912 0.10498736 0.10841306 0.15973112 0.3355693 -0.18318538 -0.0801769
-0.16786288 0.0017596736 -0.0869731 -0.07454868 -0.21599947 -0.19409727 0.19577946 -0.19077587
0.08403576 0.13543877 0.10718251 -0.039042406 -0.049232893 0.55024457 0.40287253 0.3959393
0.07021634 0.016844833 0.3602255 0.05915183 0.11105532 0.23369151 -0.0971176 -0.011286702
0.085742645 -0.09140344 -0.10551107 0.13388622 -0.012017273 -0.31344575 -0.20470661 -0.22936654
-0.03474567 0.008167023 0.60991037 0.2995696 0.00813995 0.02625243 0.077273585 0.21394372
0.011951608 -0.17758195 0.35973266 0.07311287 0.01981525 0.050515268 -0.1128887 -0.2858805
-0.1882147 -0.118438326 -0.08940127 -0.11847642 -0.29777753 -0.14288405 -0.0976402 -0.16151686
-0.069019176 -0.25728536 -0.0070735663 0.046209358 -0.26275575 0.008828815 0.07030134 0.11200979
-0.016216071 -0.12757829 0.09448179 0.095414184 0.038103767 0.07143149 -0.17961824 -0.23759739
00000000: c9b4 7f3b b82a 92be 64cf 1fbe 2129 e53d
00000010: b4e2 743e 6f20 57be 3d8d 5b3e 2bce c93e
00000020: d179 29bd 478a 473e d955 e0bd 24ed 0ebd
00000030: 14c1 81bd 7a70 7dbe df44 5dbe 013c 903e
00000040: eb2b e43d b0fd 50be 60ed a93c 3a32 05be
00000050: 5ba9 85be 0c72 0dbe 7fdb 74be 3853 88be
00000060: 52bd 20be 468d babe 76f2 a1bd 843a e33b
00000070: d24f 853e f107 613e 0c21 33be b883 763d
00000080: c84e 00be aba3 a43d 1218 bd3e 7275 2dbe
00000090: 3140 71be 1292 133d 8b11 3bbe afe6 70bb
000000a0: 5634 b8bd da1f 91be 2965 acbd baff bf3d
000000b0: 7cb2 ee3c 1ffa db3e c08f b1be bb7b 2dbe
000000c0: db72 f73e 2e21 013f 9fd3 0fbe 8437 d2be
000000d0: afee 99bc 3f4f 663e 30af 90be 4573 f3be
000000e0: 6c46 a0be a26a 703d 2dd2 81be 8b91 0ebe
000000f0: 1045 4c3e 9ffb 50bd 134f b93e a128 e9bc
00000100: 6328 923e 99c5 003e bbe6 37be 3139 6dbe
00000110: bd43 4bbe 7c43 0cbe d95c c3bd 141d 093d
00000120: e91e d0be e66a c2be 13b3 2a3e 9c6d 1fbe
00000130: fcaf 13be a0aa 79be 4722 28be d650 c93c
00000140: d1f0 153e a888 9e3e ed78 afbd e279 8ebd
00000150: 2c74 c3be d4a9 863b 8336 ab3c 7e31 93bd
00000160: 10ab 4dbe 407f e03e 9b22 603c f45f a7bd
00000170: e6fc 9ebd 659c aabe 3236 8fbe dd25 93be
00000180: 6cde 0fbe 9afc 64bd 0552 9c3d 7bde a5be
00000190: a009 e5be 1017 1c3f 3644 23be 445b d2bd
000001a0: 8e1a 80bd de4a 33be e6aa 9abe 428f 093e
000001b0: afda 6dbe f166 85be e8da aebd 6ad6 d93d
000001c0: 5c65 b63e 0b61 aebd 6416 5c3d 890e ce3d
000001d0: 5eb8 a03e 97b8 c2bc 9718 213f 79a5 2f3d
000001e0: 7a01 da3e 816e da3c a428 a2bd 52c3 9abc
000001f0: d6ab e3bb 8e94 b9bb a0f5 01be b639 dcbe
00000200: acb1 4f3e 9d9d 78bc f433 54be a123 ae3e
00000210: dc29 183d 1f72 e1be 7598 873e f6e2 4ebe
00000220: 2fbe e7bd 74ce ae3d ac79 9c3e a917 053c
00000230: 5b81 61be 0d2a d83e 8bd7 c43d a0ee 40be
00000240: 1d06 96bd 736a d23d feac 81be 3866 343e
00000250: b5d6 8cbe 1a38 4dbe 0eee 86be 6634 063e
00000260: b2ae a9be bd90 debd 48ef 8abd a773 dcbc
00000270: 7a1d 05bd 9468 64be 58ae 1b3e 2de1 d13e
00000280: d9e0 553d 52c9 e63d 64a9 af3e ed65 07be
00000290: 9f05 a23d 26ad 66bc f0e7 89bd 00df b83e
000002a0: 47a6 193d dcaf 153d 6697 d83d cae2 cdbc
000002b0: b713 18bd 6063 b03e a6d3 9abc a745 a1bd
000002c0: eaf8 50be abcb 2bbe 9d03 d73d ab07 de3d
000002d0: 8e90 233e bdcf ab3e f394 3bbe c933 a4bd
000002e0: 3fe4 2bbe d9a4 e63a f41e b2bd faac 98bd
000002f0: f72e 5dbe 6fc1 46be 697a 483e c05a 43be
00000300: f11a ac3d 76b0 0a3e 8182 db3d eeea 1fbd
00000310: 6ea8 49bd d4dc 0c3f 4f45 ce3e 8eb8 ca3e
00000320: 96cd 8f3d 2dfe 893c 7a6f b83e 3049 723d
00000330: f970 e33d d44c 6f3e 98e5 c6bd dceb 38bc
00000340: d799 af3d ba31 bbbd 3016 d8bd 7819 093e
00000350: 19e4 44bc f67b a0be 9c9e 51be 10df 6abe
00000360: 7a51 0ebd face 053c 1623 1c3f 3061 993e
00000370: 6d5d 053c 560f d73c 9d41 9e3d 1014 5b3e
00000380: add0 433c 0bd8 35be e12e b83e 33bc 953d
00000390: 9753 a23c 19e9 4e3d 3132 e7bd ee5e 92be
000003a0: 5bbb 40be cb8f f2bd 0318 b7bd c4a3 f2bd
000003b0: 4c76 98be 3250 12be 96f7 c7bd ad64 25be
000003c0: ed59 8dbd e8ba 83be 60c9 e7bb 0646 3d3d
000003d0: ec87 86be bca6 103c 26fa 8f3d 6465 e53d
000003e0: 91d7 84bc e2a3 02be ab7f c13d 8368 c33d
000003f0: b212 1c3d ac4a 923d d8ed 37be bb4c 73be

bias f4 [10]
0.2833353 0.6683726 -0.057730317 0.31444126 0.14533044 -0.7246541 -0.6901302 0.026174111
0.47726816 -0.05324707
00000000: 5311 913e 771a 2b3f a076 6cbd 72fe a03e
00000010: 81d1 143e ee82 39bf 5fac 30bf 176b d63c
00000020: 7e5c f43e 9a19 5abd
